testdata/fizzbuzz_model.tflite (tflite, 4904 bytes, 4 tensors)

sequential/dense_1/BiasAdd/ReadVariableOp f4 [4]
000000 b3 b4 27 3e af d8 39 3e 3b 65 90 bc 8d 55 13 bf
       0.16377525 0.18149064 -0.017626395 -0.57552415

sequential/dense/BiasAdd/ReadVariableOp f4 [64]
000000 8b c8 af 3e f1 8d 76 3e cc f1 9b 3c 68 3e a4 be
       0.3433269 0.24077584 0.019036196 -0.32078862
000010 6c f5 c6 3e de 4a 45 bf 22 ba 91 be 85 5e 68 be
       0.38859117 -0.77067363 -0.2846232 -0.22692306
000020 05 22 ec 3e 1c 87 c8 3e d1 e7 e6 be 64 2e aa be
       0.46119705 0.3916558 -0.45098737 -0.33238518
000030 12 f3 9b be 37 9a 0b 3f 17 7a f8 3d 91 20 ed be
       -0.30458885 0.5453219 0.12132662 -0.4631391
000040 b0 9a 6f 3e 35 f1 10 3f f8 ae d3 3e 76 74 6f be
       0.23398852 0.5661805 0.41344428 -0.2338427
000050 c5 f4 9d be e8 cf b3 be 9d 60 76 3e 97 2a b7 be
       -0.30850807 -0.35119557 0.24060293 -0.3577468
000060 f1 b2 23 3e 04 9a aa 3d ad 23 80 3e 73 d5 0b 3f
       0.1598623 0.083301574 0.25027218 0.5462257
000070 75 d2 94 be de 09 87 be 3d 75 10 be 3c 30 46 be
       -0.29066816 -0.26374716 -0.14107223 -0.19354337
000080 21 e1 f7 be fc 76 01 be 6c 57 b5 3d 56 1a cc be
       -0.48413947 -0.12643045 0.08854565 -0.39863843
000090 26 34 2c 3f 4a 9d 08 bf 81 8b c6 3e a1 e7 1c 3e
       0.6726707 -0.53365004 0.38778308 0.15322734
0000a0 fc 5b be be a0 7f b3 be 88 e4 13 3f 30 22 17 bf
       -0.37179554 -0.35058308 0.57770586 -0.5903654
0000b0 b5 40 a4 be de e9 da 3e 31 b1 4b 3f 81 1b 72 3e
       -0.32080618 0.42756552 0.7956725 0.23643304
0000c0 1c a1 90 3e fa a3 7f 3d 6a ed ac 3d 20 4a 1e 3f
       0.28247917 0.06241224 0.08443721 0.61831856
0000d0 2a 35 05 bd dc 8e aa 3e af 90 ee be 22 aa 9c 3e
       -0.032521404 0.33312118 -0.4659476 0.3059855
0000e0 a8 c0 8c bd ac dd d4 bc 3d 75 02 3e b5 8f 77 be
       -0.06872684 -0.025984608 0.12740035 -0.24175914
0000f0 a0 3a f5 be d3 a3 3c bf 7c 85 23 bc 6a 3b 74 be
       -0.4789629 -0.73687476 -0.009980556 -0.2385079

sequential/dense/MatMul f4 [64, 7]
000000 31 0b 39 bf 09 80 57 3f f8 3e 0b bf fe 9d 30 3f
       -0.722827 0.8417974 -0.5439296 0.68991077
000010 ac b9 45 bf 5d ab 49 bd 9f 24 cd 3e 72 c6 0d 40
       -0.7723644 -0.04923569 0.40067002 2.2152371
000020 1e 0e 22 bf 04 18 e2 bf ed cf 96 3f 81 06 0e 40
       -0.6330279 -1.7663579 1.1782204 2.219147
000030 31 3c be be 51 08 ca bf 9a 9d 81 be 06 2e 96 bd
       -0.37155297 -1.5783788 -0.25315553 -0.07332997
000040 3c ae 5d 3e a2 45 9d 3d d2 1e 56 be f8 81 0a bf
       0.21648496 0.07679297 -0.20910195 -0.54104567
000050 ac 25 95 be 76 07 e2 3d 1e c1 a4 bd 85 88 9d 3e
       -0.29130304 0.11036579 -0.08044647 0.3076822
000060 2c c0 87 3e 74 2f 56 3d ff 25 58 be 7f 46 99 3e
       0.26513803 0.05229135 -0.21108244 0.29936597
000070 5a a8 26 bf f9 fe 69 bf f4 7c 14 40 9e c9 08 be
       -0.65100634 -0.9140468 2.3201265 -0.13358161
000080 2c 48 30 bf 7b 7f 71 bf 82 75 07 c0 a0 44 cb 3f
       -0.68860126 -0.94335145 -2.116547 1.5880318
000090 af 15 f1 bf d7 d1 cb 3f 72 52 e7 bf 34 2e cd 3f
       -1.8834742 1.5923413 -1.8072035 1.6029725
0000a0 57 62 f1 bf 20 36 b8 3f 46 04 f1 3e 8a a0 10 3d
       -1.8858136 1.4391518 0.47073573 0.035309352
0000b0 59 cd ef 3e 3e 0b ad be c9 38 e7 bd 0d 93 fa be
       0.46836355 -0.3379764 -0.11290128 -0.48940316
0000c0 49 4f c7 3e 04 6a ac be 21 7a 4d bf b7 7f 09 3f
       0.38927677 -0.33674634 -0.8026448 0.537105
0000d0 23 bf a2 bf 4d b3 eb 3d 49 47 8f 3f f7 5b 3d be
       -1.271458 0.11508808 1.119363 -0.18492113
0000e0 0e fa f1 bc 7a 98 00 bf 9d 0c bf 3f 7c 1a 43 3f
       -0.02953818 -0.5023266 1.4925724 0.76212287
0000f0 6c c5 6f be c7 45 b8 3e 4f 22 92 bf 28 be 80 be
       -0.23415154 0.35990736 -1.141672 -0.25145078
000100 a3 5e 65 3e 80 db 5c be 1d ec 8d 3e d4 25 24 3d
       0.22399382 -0.21568108 0.27719203 0.04007514
000110 0b ed 0d be 2d 71 3c be a8 13 9e 3e 94 76 b4 3e
       -0.13859956 -0.18402548 0.30874372 0.35246718
000120 82 b6 02 3f 02 1a 2b bf 72 b1 5e 3e 1f 5d c5 be
       0.51059735 -0.6683656 0.21747378 -0.38547608
000130 cf a7 b9 3e e2 ac 97 3d 2b 3f 6f be f7 d4 ad 3e
       0.3626084 0.07406022 -0.2336394 0.33951542
000140 55 c3 ff bc cd 1f 91 3e 2d dc 80 bd fa 72 ec 3e
       -0.031221071 0.28344575 -0.06291995 0.4618147
000150 38 90 6c 3f 41 c6 a9 3e 5d e9 32 3e 9f 00 b5 be
       0.9240756 0.33159068 0.17471834 -0.35352036
000160 ca 17 50 3f 00 56 fe 3d c4 a7 36 bc 20 c4 9d be
       0.812863 0.12418747 -0.011148397 -0.30813694
000170 c2 aa 03 bf 3d ce 8c 3d b3 5b 1a be a4 85 81 be
       -0.5143243 0.06875274 -0.15074043 -0.25297272
000180 13 76 07 bf 06 3c 1b 3e bc ec d0 3f 14 b4 8b be
       -0.5291454 0.15159616 1.6322246 -0.27285826
000190 c2 01 0a 3f 13 be 57 3f 83 aa df bf 5b 3b 51 be
       0.5390893 0.84274405 -1.7473911 -0.20432799
0001a0 3f 9a 4c 3e f5 c3 f9 bd 1b c6 8c 3e 02 3f c9 3e
       0.19980715 -0.12195579 0.27494892 0.39305884
0001b0 bf 26 03 3e 8a 69 17 bf ed bb 0b 3f 0d 59 5e be
       0.12807749 -0.59145415 0.54583627 -0.21713658
0001c0 e4 04 d6 3e 27 7a be be 9d 88 7c be 99 a2 31 3d
       0.41800606 -0.3720257 -0.24661489 0.043367956
0001d0 ef e2 8b 3e f8 77 08 bf 2b 0c e5 3d 6c db 8a 3e
       0.27321574 -0.5330806 0.111839615 0.2712053
0001e0 03 a4 89 3e 3b d7 e4 3d 1a 4d 7b 3e 35 f3 b2 bd
       0.26882944 0.111738645 0.2454113 -0.08737794
0001f0 f4 2a 8d be ba 21 ba bd 31 97 da 3e 68 fc 24 be
       -0.27571833 -0.09088464 0.42693475 -0.1611191
000200 c4 6c cf 3e c4 fa bd bd a1 63 cf bd af 35 5b 3e
       0.4051267 -0.09276345 -0.101264246 0.21407197
000210 2f ea 9e 3e 77 41 ef 3d 6d f8 ca bd e8 19 92 3c
       0.31038043 0.11682408 -0.09910665 0.017834619
000220 e0 67 1e 3d 08 ba 19 be bf a2 79 be f9 36 38 bc
       0.03867328 -0.15012372 -0.24378489 -0.011243575
000230 02 0e 1c be 25 bf 08 3e 78 99 eb 3e ee c0 c6 be
       -0.15239719 0.13354166 0.46015525 -0.3881907
000240 bc 4c 22 be 83 e7 fc 3e fc 8e cd 3d 3a 96 fb be
       -0.15849584 0.4939538 0.10037038 -0.4913805
000250 c0 a2 c0 be ab ee 02 3f 0a 7e b6 be 9b 46 27 3f
       -0.37624168 0.5114543 -0.35643035 0.6534211
000260 56 57 01 bf c4 bb af 3d e2 52 4c 3f 80 47 fa be
       -0.5052389 0.08580735 0.7981397 -0.48882675
000270 4e cb 89 be c2 ef 68 3e b9 8d 1b 3f 13 86 51 bf
       -0.26912922 0.2274771 0.60763127 -0.81845206
000280 d9 90 58 3e 3e 1b 63 3f 3b d9 f1 3f 3e 85 8f bf
       0.21149005 0.88713443 1.8894418 -1.1212537
000290 5d 59 0f c0 4f 2c 5d 3f 3a 4f c7 3f da a4 9b bf
       -2.2398293 0.86395735 1.5571053 -1.2159684
0002a0 53 71 57 3f 07 3a 11 be ef 4f 3a 3f 8c fc a7 bf
       0.84157294 -0.14182292 0.7277822 -1.3123946
0002b0 d8 ba 4c 3f ac 0e 4b 3f 23 c4 19 3f 38 78 25 bf
       0.799726 0.7931926 0.60064906 -0.64636564
0002c0 a8 26 b7 be e2 1e 7c be 8c 63 25 bf 67 fa b8 3c
       -0.3577168 -0.24621156 -0.6460502 0.022580339
0002d0 99 74 08 3f f3 25 b0 be fc 2d b6 bf bf e4 3a 3f
       0.53302914 -0.34403953 -1.4232783 0.7300529
0002e0 77 d6 9c be 68 11 98 3f 1d b4 bb bf 3a da 10 3f
       -0.30632374 1.1880312 -1.4664341 0.5658299
0002f0 b2 29 74 3f b8 07 2e bf 34 69 18 3e 7b 12 a4 be
       0.9537612 -0.6798053 0.14883882 -0.3204535
000300 1f e1 a8 3d 23 23 32 3f 43 3c 60 3e 9c 23 bd be
       0.082460634 0.69584864 0.21897988 -0.3694123
000310 3c 82 5d 3d ea f9 57 be ae 1b 1b 3e 3e c9 e0 be
       0.05407928 -0.21091428 0.15147278 -0.43903536
000320 02 47 cd be b7 65 0b 3f 4f 81 15 bf 85 74 0c 3f
       -0.40093237 0.5445208 -0.58400434 0.54865295
000330 f4 69 a3 bd 01 a4 44 bf 55 b8 bf bd ee c3 00 3f
       -0.07979193 -0.7681275 -0.093613304 0.50298965
000340 4f 9b 87 3f c5 cd 9e 3e 23 b7 68 bf 1c 94 c9 bf
       1.0594271 0.31016365 -0.90904444 -1.5748324
000350 1b d3 1a 3f 1f ee a4 3f e9 d9 69 bf dc f9 bd 3f
       0.6047837 1.2885169 -0.9134813 1.4841876
000360 37 b2 14 3f 4e 50 6e bf 18 78 e2 bf 52 6b 4c 3f
       0.58084434 -0.93091285 -1.76929 0.7985126
000370 4a 91 b9 3f 13 df 7a bf 86 d8 cb 3f bf 46 06 3f
       1.4497464 -0.97996634 1.5925453 0.524517
000380 9d 0a 88 bf 32 a9 d4 be bc 98 27 bd eb 6b b4 be
       -1.0628239 -0.41535336 -0.040917143 -0.35238585
000390 7e a2 9c 3f b6 71 cb be 1d fd 70 3e 46 c2 a0 be
       1.2237089 -0.39735192 0.23534055 -0.3139822
0003a0 e3 0d a1 bd 8f c7 e4 3d 1c 75 b7 be 14 36 2b 3d
       -0.07863977 0.11170875 -0.35831535 0.04179962
0003b0 7f ad 93 3e 13 f7 25 bf bd 63 c4 ba b9 46 4f 3e
       0.28843305 -0.6483013 -0.0014983338 0.20241822
0003c0 11 21 61 3d 4c df d7 3d 36 fa 81 3d 7e f2 dd 3d
       0.054963175 0.105406374 0.06346552 0.10837267
0003d0 38 c4 0a 3e fd d9 5c 3e 74 9d 8b 3d 8a f4 1c be
       0.13551414 0.21567531 0.06817141 -0.15327659
0003e0 cf c7 33 3d 18 39 16 bf d9 8f e5 bd 20 72 2f be
       0.043891724 -0.5868087 -0.112090774 -0.17133379
0003f0 e0 42 a2 bf 3f 15 c7 3f 95 c1 a7 bf cc 9a bc 3f
       -1.2676659 1.5553359 -1.3105952 1.473474

sequential/dense_1/MatMul f4 [4, 64]
000000 94 69 76 3f 50 89 9f bf 0b 25 01 3f d1 d9 99 be
       0.9625485 -1.246378 0.5044715 -0.30048993
000010 fe b7 28 3f 9c cc 15 40 3e 84 04 bf a8 6b c9 be
       0.6590575 2.3406134 -0.51764286 -0.39339948
000020 c9 a1 32 be e8 dd d7 3e 10 71 37 bf 06 b1 03 bf
       -0.17444529 0.4216149 -0.71656895 -0.5144199
000030 ba ba 90 3e 61 f1 61 3e 1e 39 c5 bd 6d 29 92 be
       0.2826746 0.22064735 -0.09630035 -0.2854723
000040 4d b7 69 3e 97 c5 07 3d 2b eb 82 3e 1f 3a 7a be
       0.2282383 0.03314742 0.25570044 -0.24436234
000050 17 a9 0e bf 16 0f a2 be 51 9f e8 3e 74 80 29 3f
       -0.5572676 -0.31652135 0.4543405 0.6621163
000060 84 49 68 3f 43 a5 b7 3e c7 b4 aa 3f 3e d1 cd 3e
       0.90737176 0.35868272 1.3336419 0.40198702
000070 9f d5 b1 3d 12 bf f5 be cd b5 1d 3f 0a 51 20 3f
       0.08683323 -0.47997338 0.6160553 0.62623656
000080 52 f3 0b be ae 6b a7 3e df db 67 be 50 42 50 be
       -0.13667038 0.3269934 -0.22642468 -0.20337796
000090 d5 f6 96 bf 7e 92 81 3d f2 5c 05 c0 a3 d1 d8 3f
       -1.1794077 0.06326769 -2.083798 1.6938976
0000a0 d8 80 4d be e0 3f 84 be 4d 8c 84 3c b3 fb 8f be
       -0.20068681 -0.25829983 0.016180182 -0.2812172
0000b0 1a 13 62 3d c0 9f f4 bd 37 20 39 3e ff ff 77 3f
       0.055193998 -0.119445324 0.18078695 0.96874994
0000c0 01 5e 0d bd ab 9d 68 3f 28 f4 c9 3e 79 c2 bb bf
       -0.034513477 0.9086558 0.3944409 -1.4668723
0000d0 98 9b 01 bf cb bf a0 3f 5c 7e 76 3f af 98 e8 bd
       -0.5062804 1.255853 0.9628656 -0.11357247
0000e0 23 89 a7 be b5 07 da be cf da fc be 95 e6 7c bf
       -0.32721815 -0.42584005 -0.49385688 -0.9878934
0000f0 72 9b 8d bd 29 cf a8 be 2d 83 e6 3e 3f 32 ce be
       -0.069144145 -0.3297055 0.45021954 -0.4027271
000100 c3 32 6c bf c7 92 41 bf cc 88 99 bd be 26 8a 3e
       -0.92264956 -0.7561459 -0.07496795 0.26982683
000110 a8 76 d6 be 6c 34 ff bf 2d 75 a0 3e 4d 5f 0e bf
       -0.41887403 -1.9937873 0.31339398 -0.5561417
000120 a1 dd 2b 3e 04 46 8f bd b7 96 d6 3e 60 68 c5 3e
       0.16783763 -0.06995776 0.4191186 0.38556194
000130 d6 a8 11 3d 5d 3e db 3e 67 ec 11 3f 6c 84 94 3c
       0.035561405 0.42821017 0.57001346 0.01812955
000140 27 bf a9 3d b2 86 fc 3d 22 9c ea 3e a3 5c c7 3d
       0.082884125 0.123303786 0.45822245 0.09734466
000150 c2 93 a5 bd 8d 60 6a 3e e2 83 f3 bc 85 b5 49 3f
       -0.08084823 0.22888394 -0.029725973 0.787926
000160 96 60 1c bf 78 b5 41 bf 8c 7e ba bf 41 5e 67 3b
       -0.6108488 -0.75667524 -1.4569869 0.0035303982
000170 8b fa 22 bf 51 48 66 bd 45 ca e4 3e 95 7b 74 3f
       -0.6366355 -0.05622131 0.4468557 0.9550107
000180 a2 6d 70 3d e6 6a 1a bf e9 b3 fb 3d 7c d6 ad bd
       0.058698304 -0.60319364 0.122901745 -0.08488175
000190 71 f7 b1 3f 65 ed de be a8 9f ce 3f 1c cd 28 bf
       1.3903638 -0.43540493 1.6142473 -0.6593797
0001a0 15 63 79 bf 61 95 26 be 02 bc d7 3e 57 93 f2 be
       -0.9741681 -0.16267921 0.42135626 -0.47378036
0001b0 e7 2a 95 bf 80 ae 0c bd ec 68 d9 3e 58 aa d6 bb
       -1.1653718 -0.034346104 0.42462862 -0.0065510683
0001c0 26 b3 66 bf 0d 2f bd bd 80 51 db be c9 3a 8b bf
       -0.9011711 -0.0923749 -0.42835617 -1.0877315
0001d0 fe f4 89 be a3 4f 94 bf 02 ba b2 bf 6f 50 2b 3f
       -0.26944727 -1.1586803 -1.3963015 0.66919607
0001e0 59 be e1 bd 16 75 40 3f 8e 0e 6f 3f 02 bf fa 3e
       -0.11022634 0.7517866 0.93381584 0.48973852
0001f0 c0 5f 42 bd 0a 0d 92 be 7b 50 0f bf cf b8 23 3f
       -0.047454596 -0.28525573 -0.5598218 0.6395387
000200 7e 8f 5a be ae db a5 3f 74 85 b6 be 01 4b ea be
       -0.213438 1.2957666 -0.35648692 -0.45760348
000210 84 53 9a bf 9a 10 03 3f 26 a0 a8 be 85 23 dc 3e
       -1.2056737 0.51197207 -0.32934684 0.4299585
000220 61 4f 18 3f 8f 63 16 be b2 32 83 3e b2 1e c4 be
       0.5949612 -0.14686416 0.25624615 -0.3830467
000230 37 ac b0 bd f0 2a 29 3e 19 f3 38 3f e7 7f ea 3e
       -0.086265974 0.16520286 0.7224594 0.45800707
000240 47 16 40 bf c1 6b b8 bd b6 b0 40 be 91 14 ca bd
       -0.7503399 -0.090049274 -0.1881741 -0.09867204
000250 b5 7e f2 3e 92 f6 9a be 10 d3 86 bf f4 1e f3 bf
       0.47362295 -0.30266243 -1.0533161 -1.8993821
000260 86 1b 08 be 6f f2 e2 3d 7e fc 37 bf 80 f2 aa 3d
       -0.1329175 0.11081397 -0.7186965 0.083470345
000270 e4 21 bb 3e c7 7c 33 3f 0d 3c d1 bf 06 dc e6 bf
       0.36549294 0.7011227 -1.6346451 -1.8035896
000280 66 02 c3 be bc 5d 0e 3d a9 0d 15 3e f6 a7 5f 3e
       -0.38087767 0.03475736 0.14555992 0.21841416
000290 44 36 48 bf 4d bd cd be 12 47 ad 3f 83 27 9f bf
       -0.782078 -0.40183488 1.3537314 -1.2433933
0002a0 3d 0f 24 3f 1e 8a bb 3e fa 52 6b 3e 36 c4 99 be
       0.6408575 0.36628813 0.22980872 -0.3003251
0002b0 9b e6 5b 3f e1 9c 96 3f 92 9f d7 3e ce 7d 1f bf
       0.8589875 1.1766626 0.4211393 -0.6230134
0002c0 9c 82 68 3f ec 03 ca bf 23 aa 48 bd b6 28 41 40
       0.90824294 -1.5782447 -0.04899038 3.0181098
0002d0 54 c2 ef 3e 2e 5c 75 bf 6e 38 8b bf 59 0d 1b 3c
       0.46827948 -0.9584378 -1.0876596 0.009463632
0002e0 f0 c2 6a 3f 61 1a 17 bf 23 1e 2f 3f 77 f4 6e 3f
       0.917037 -0.59024626 0.6840536 0.93341774
0002f0 34 84 f4 3d 21 da 98 be 37 58 3e bd 67 81 17 bf
       0.11939278 -0.2985392 -0.046470847 -0.5918183
000300 15 9d c6 be ab 7c 0e 40 31 7d 77 bd da f1 23 3f
       -0.3879172 2.2263591 -0.060422126 0.6404091
000310 eb ab f1 3f 9f ed 3a bf 8a e5 14 3f 5c 3c 08 3f
       1.888059 -0.7301883 0.5816275 0.532171
000320 6c e0 b7 bf b2 c6 7f bf af 71 81 3f 90 c4 53 3f
       -1.4365363 -0.9991256 1.0112818 0.82721806
000330 9f 1a 34 3f 4f 44 3f bf f4 0a a7 bf 52 d0 17 3f
       0.7035312 -0.74713606 -1.3050218 0.59302247
000340 1a e8 8b be 05 5e 58 bf 58 86 00 bf e1 f4 a1 3e
       -0.27325517 -0.8451846 -0.5020499 0.3163214
000350 66 6c 16 3f 97 59 27 3f 49 83 4c 3e 92 61 d5 bf
       0.5875915 0.6537108 0.19971956 -1.6670401
000360 b2 78 02 3f c1 30 41 3e 6a 41 69 3f 1d ae 92 bf
       0.50965416 0.18866254 0.9111544 -1.1459385
000370 95 86 53 3f 32 b1 1a 3f dd 59 04 bf b9 12 09 bf
       0.8262723 0.6042663 -0.5169962 -0.53544194
000380 4d 5f 97 3f e0 b1 25 3f cf c7 d6 be 74 7c 31 3f
       1.1825958 0.6472454 -0.41949317 0.69330525
000390 05 22 41 3f b2 05 93 3f ee e1 bb bf d6 0e bc 3f
       0.75442535 1.1486113 -1.4678323 1.4692028
0003a0 4d b7 10 3f e6 c4 c9 3e ce 32 3f bf fb 36 4c 3f
       0.56529695 0.39408034 -0.74686897 0.79771394
0003b0 33 39 78 3f 8f dd d3 be 53 bb 94 bf 5e 93 8a bf
       0.9696228 -0.41379973 -1.1619667 -1.0826223
0003c0 9b 7c 76 be 51 9d 14 3f 93 04 be bd 2a 1b 00 40
       -0.2407097 0.58052546 -0.09278216 2.001658
0003d0 f2 8b 7b 3f f5 2e 80 3f 52 1d f2 3f 46 57 04 bf
       0.98260415 1.001433 1.8915198 -0.5169567
0003e0 5d 3e 44 bf 32 29 87 3e 9a f1 d2 bf c7 81 51 bf
       -0.7665766 0.26398617 -1.6479981 -0.8183865
0003f0 2a 19 e6 3e cb d3 38 3f 61 6d 86 3f 02 4a 5f 3f
       0.44941074 0.7219817 1.050213 0.872223
