testdata/xor_model.tflite (tflite, 3072 bytes, 3 tensors)

sequential/dense/MatMul;StatefulPartitionedCall/sequential/dense/MatMul i1 [16, 2] scale=0.0044557042 zero_point=0
00000000: 9972 9759 55b2 35ef 2b32 a958 af07 9b5b
00000010: af9c 1647 c623 ab54 d8e1 689b e614 81dc
-0.45893753 0.5079503 -0.46784896 0.3965577 0.37873486 -0.34754494 0.23615232 -0.07574697
0.19159529 0.2227852 -0.38764626 0.39210197 -0.36091205 0.03118993 -0.45002612 0.4054691
-0.36091205 -0.4455704 0.09802549 0.316355 -0.25843084 0.15594965 -0.37873486 0.37427914
-0.17822817 -0.13812684 0.46339324 -0.45002612 -0.11584831 0.089114085 -0.56587446 -0.16040535

sequential/dense_1/MatMul;StatefulPartitionedCall/sequential/dense_1/MatMul i1 [16, 16] scale=0.0052032606 zero_point=0
00000000: f130 d218 0cb8 1499 ccdb 4e08 1dea 7ffc
00000010: 3b10 b00a 24e4 db1a 4cc9 d100 4ab0 af1f
00000020: 4017 484c 343c 2420 20d2 5a5a 4959 08b3
00000030: 98dc 674f bbeb 39cb b710 9339 1229 d519
00000040: 0fba ebd3 db04 dc25 4a3b e7ed adb7 ae43
00000050: 3b1c 2519 4ed0 b653 faf2 bdde 271a 0d4b
00000060: 5617 67ee f404 f871 03e4 1cdf e93a 0c4e
00000070: ebf0 30bd 4239 ecf9 4b49 22c1 be21 f5cd
00000080: f3e6 1218 e5c8 d9bb ef05 4d07 45ff b5c5
00000090: 2926 1ad8 38b9 ec09 f9b2 2ff7 d5b0 ff44
000000a0: 415d 2347 c833 db16 1cd0 5c3e e54e fec2
000000b0: 42ad d335 48c9 f442 f21f 43ad 2fbb 15c0
000000c0: 0fef 0653 29ef e555 11e5 3c19 ee1b da1e
000000d0: e30a b0d1 e8e9 1a20 b1ba 4bd3 af14 d933
000000e0: 19f7 fd2a be40 1935 02ae ce15 f812 abb3
000000f0: 2c3e 34a4 1a0e 261f 37c4 0d01 1cf1 9be6
-0.07804891 0.24975652 -0.23934999 0.12487826 0.06243913 -0.37463477 0.10406521 -0.5359358
-0.27056956 -0.19252065 0.4058543 0.041626085 0.15089455 -0.11447173 0.6608141 -0.020813042
0.30699238 0.08325217 -0.41626084 0.052032605 0.18731739 -0.14569129 -0.19252065 0.13528478
0.3954478 -0.28617933 -0.24455325 0.0 0.3850413 -0.41626084 -0.42146412 0.16130108
0.33300868 0.119674996 0.37463477 0.3954478 0.27056956 0.31219563 0.18731739 0.16650434
0.16650434 -0.23934999 0.46829346 0.46829346 0.37983802 0.46309018 0.041626085 -0.40065107
-0.5411391 -0.18731739 0.5359358 0.4110576 -0.35902497 -0.10926847 0.29658586 -0.2757728
-0.37983802 0.08325217 -0.5671554 0.29658586 0.09365869 0.21333368 -0.2237402 0.13008152
0.07804891 -0.36422825 -0.10926847 -0.23414673 -0.19252065 0.020813042 -0.18731739 0.19252065
0.3850413 0.30699238 -0.13008152 -0.09886195 -0.43187064 -0.37983802 -0.42666736 0.34861845
0.30699238 0.14569129 0.19252065 0.13008152 0.4058543 -0.24975652 -0.3850413 0.43187064
-0.031219564 -0.072845645 -0.34861845 -0.17691086 0.20292716 0.13528478 0.06764239 0.39024454
0.4474804 0.119674996 0.5359358 -0.09365869 -0.06243913 0.020813042 -0.041626085 0.58796847
0.015609782 -0.14569129 0.14569129 -0.1717076 -0.119674996 0.3017891 0.06243913 0.4058543
-0.10926847 -0.08325217 0.24975652 -0.34861845 0.3434152 0.29658586 -0.10406521 -0.036422823
0.39024454 0.37983802 0.17691086 -0.32780543 -0.3434152 0.1717076 -0.057235867 -0.2653663
-0.06764239 -0.13528478 0.09365869 0.12487826 -0.14048803 -0.29138258 -0.20292716 -0.35902497
-0.08845543 0.026016302 0.40065107 0.036422823 0.35902497 -0.0052032606 -0.39024454 -0.30699238
0.21333368 0.1977239 0.13528478 -0.20813042 0.29138258 -0.3694315 -0.10406521 0.046829347
-0.036422823 -0.4058543 0.24455325 -0.046829347 -0.2237402 -0.41626084 -0.0052032606 0.35382172
0.33821192 0.48390323 0.18211412 0.3694315 -0.29138258 0.2653663 -0.19252065 0.11447173
0.14569129 -0.24975652 0.47869998 0.32260215 -0.14048803 0.4058543 -0.010406521 -0.32260215
0.3434152 -0.43187064 -0.23414673 0.2757728 0.37463477 -0.28617933 -0.06243913 0.3434152
-0.072845645 0.16130108 0.34861845 -0.43187064 0.24455325 -0.35902497 0.10926847 -0.33300868
0.07804891 -0.08845543 0.031219564 0.43187064 0.21333368 -0.08845543 -0.14048803 0.44227716
0.08845543 -0.14048803 0.31219563 0.13008152 -0.09365869 0.14048803 -0.1977239 0.15609781
-0.15089455 0.052032605 -0.41626084 -0.24455325 -0.12487826 -0.119674996 0.13528478 0.16650434
-0.4110576 -0.36422825 0.39024454 -0.23414673 -0.42146412 0.10406521 -0.20292716 0.2653663
0.13008152 -0.046829347 -0.015609782 0.21853694 -0.3434152 0.33300868 0.13008152 0.2757728
0.010406521 -0.42666736 -0.26016304 0.10926847 -0.041626085 0.09365869 -0.44227716 -0.40065107
0.22894347 0.32260215 0.27056956 -0.47869998 0.13528478 0.072845645 0.1977239 0.16130108
0.28617933 -0.31219563 0.06764239 0.0052032606 0.14569129 -0.07804891 -0.5255293 -0.13528478

sequential/dense_2/MatMul;StatefulPartitionedCall/sequential/dense_2/MatMul i1 [1, 16] scale=0.00731791 zero_point=0
00000000: 81b8 463e fd20 1fcc bbd8 5ade 19f2 e1c4
-0.9293746 -0.5268895 0.5122537 0.4537104 -0.02195373 0.23417312 0.2268552 -0.3805313
-0.5049358 -0.29271638 0.6586119 -0.24880894 0.18294775 -0.10245074 -0.2268552 -0.4390746
