testdata/xor_model.tflite (tflite, 3240 bytes, 5 tensors)

sequential/dense_1/BiasAdd/ReadVariableOp f4 [16]
000000 e5 16 a1 3d 5f e1 9d 3d 22 79 0c bd 00 00 00 00
       0.07865695 0.07709002 -0.03429521 0.0
000010 62 a4 b0 3d 87 7f 37 3e b0 77 e0 bc 51 34 13 3e
       0.086251035 0.17919742 -0.027400821 0.14375426
000020 89 60 21 3d b9 52 d9 3d c6 33 9b bd 30 75 07 bd
       0.039398704 0.10611481 -0.075782344 -0.033070743
000030 61 6b b4 bd cd b8 9d 3c ca bd fb bd 8a f4 4f bd
       -0.088095434 0.019253159 -0.12292059 -0.05077032

sequential/dense/BiasAdd/ReadVariableOp f4 [16]
000000 2c 63 33 3e 4d f1 26 3d 69 1a 42 35 97 31 c9 3d
       0.175183 0.040757466 7.2309064e-07 0.09823912
000010 52 9b d0 bc f9 c4 a4 3c bf 98 65 bd 13 a6 74 b5
       -0.025464687 0.020113455 -0.056053873 -9.1138753e-07
000020 02 a3 4d bb 19 d6 b6 bd 5c c9 83 3c 25 db f9 bd
       -0.0031377678 -0.08927555 0.016087227 -0.122000016
000030 00 00 00 00 5b 11 94 3d 00 00 00 00 00 00 00 00
       0.0 0.07229873 0.0 0.0

sequential/dense/MatMul f4 [16, 2]
000000 62 3a fe 3e fd f5 2b bf 8e fe 1e 3f 53 6b ba be
       0.49653918 -0.67172223 0.6210717 -0.36410007
000010 39 b7 ad 3e 53 6b fe 3e 15 cd ef 3e 70 15 a2 3e
       0.3392885 0.49691257 0.46836153 0.3165698
000020 38 aa 2b 3b a0 15 f5 be ab bc cf 3e e5 4b 12 3f
       0.0026193988 -0.4786806 0.4057363 0.57147056
000030 d5 b8 72 be 74 0f 96 3e db bf db be 05 a6 7c 3e
       -0.2370332 0.29308665 -0.42919812 0.24672706
000040 1c 53 03 bf fd 3e 20 3f 90 0f 00 3f b7 65 eb 3e
       -0.5129869 0.6259611 0.50023746 0.4597604
000050 d4 d8 b6 3e 0e 50 fe be 24 d6 87 be e7 4c c6 3e
       0.35712302 -0.49670452 -0.26530564 0.38730547
000060 00 ff 40 be 22 1c ec be 9f 36 d5 be 13 73 03 3f
       -0.18847275 -0.46115214 -0.41643235 0.51347464
000070 00 f0 5c bb 20 74 99 bc be b2 e4 be 7e eb cf be
       -0.0033712387 -0.01873213 -0.4466762 -0.40609354

sequential/dense_1/MatMul f4 [16, 16]
000000 20 9d c6 3e c1 c7 6d 3e 41 89 92 bd a8 3e d9 3e
       0.38791752 0.23220731 -0.07155085 0.42430615
000010 a5 f9 0f bd 36 7a ff 3d 21 e4 52 3d 58 55 40 3e
       -0.03515019 0.12474482 0.051487092 0.18782556
000020 d5 61 18 be cc 86 23 be b6 eb 92 3d 80 3b 8d 3e
       -0.1488107 -0.1596939 0.071738645 0.27584457
000030 ee b1 5f be 61 c6 c4 3c 9d 42 a0 3e ca 25 3f be
       -0.21845219 0.024020376 0.31300822 -0.18666759
000040 41 c4 da bd 42 50 0b 3f 1f b9 d5 3e ad 4c 0f bd
       -0.10681964 0.5441934 0.417428 -0.034985233
000050 6e 8d cf be e3 31 16 3e dc 5e d8 3e 5b 06 f8 3b
       -0.4053759 0.14667468 0.42259872 0.007569117
000060 cc 83 7c be fb 45 bc 3e 27 37 0a 3c 48 26 6c 3e
       -0.24659652 0.3677214 0.008436001 0.23061478
000070 b1 4e 8d 3e 28 68 1b 3d a0 54 77 bd 81 b9 d1 3e
       0.275991 0.037941128 -0.06038344 0.4096184
000080 6c 23 16 be 29 a5 cb be 3a cc 80 3e 62 63 5e bd
       -0.1466195 -0.39774445 0.25155813 -0.054293998
000090 47 f4 8f 3e 0a 10 43 be 97 e4 1b be 7d 95 08 3e
       0.28116056 -0.19049087 -0.15223919 0.13338275
0000a0 ba a5 1f be 2c 85 53 be ec 72 b9 3d 58 0f a5 3e
       -0.15590563 -0.2065627 0.09055123 0.3223827
0000b0 7e 03 54 3e b5 8f a9 3d 52 7a 86 be 5f 3a a5 3e
       0.20704457 0.08279363 -0.26265198 0.32271096
0000c0 8e 9b 2e 3e 00 e5 94 be 07 52 b8 3e 26 8c 87 be
       0.17051527 -0.29080963 0.36000082 -0.26474112
0000d0 74 ad d0 be 4c 34 04 be 40 41 e7 3c 70 db 51 bd
       -0.40757334 -0.12910575 0.028229356 -0.051234663
0000e0 ae c2 28 3e 50 30 7f bd 76 91 78 3e 20 c8 07 3c
       0.16480514 -0.062301934 0.24274239 0.00828746
0000f0 99 cb 8a 3e c4 7e 64 be 31 06 8d 3e e2 fc c8 be
       0.27108458 -0.22313982 0.27543786 -0.39255434
000100 c9 f0 df 3e cb ef 02 3f 33 f4 76 3e 1d 57 e9 3d
       0.43738392 0.51147145 0.24116592 0.11393569
000110 7b f6 01 be 74 e1 ad 3e 0c 27 f1 3e c8 36 9c 3e
       -0.12691681 0.3396107 0.47100103 0.30510545
000120 9d 4a e5 bc c9 1c 8e be 3d dc a5 3e d0 35 1b be
       -0.02798968 -0.27756336 0.3239459 -0.15157247
000130 2f 1a 84 3e 83 9f 99 3e 9c 04 b7 3d 3c 95 b1 3d
       0.25801226 0.3000451 0.08936426 0.08671042
000140 d4 de a7 3e 9b 55 d6 be cf 4e ed be df a9 8c 3d
       0.32787192 -0.41862187 -0.4634919 0.06868338
000150 82 55 bd be 45 83 a8 bc b8 54 c5 be a0 55 76 3e
       -0.369793 -0.020570407 -0.38541198 0.24056101
000160 ac ac c7 3c da d2 e8 3d 33 7c e6 bd 4c 83 bf be
       0.024374329 0.11368342 -0.11254158 -0.3740486
000170 e4 03 84 bd 8f 12 3e 3e 11 06 a9 be 39 6d 80 3e
       -0.064460546 0.18561767 -0.3301244 0.2508333
000180 01 ef 37 3e 3b cf 94 3e a4 13 60 3e 59 ae 46 be
       0.17962267 0.29064354 0.21882492 -0.19402446
000190 9f 29 bf be 41 04 bf bd d0 69 f0 3c 6e 86 60 3e
       -0.37336442 -0.09326983 0.02934733 0.21926281
0001a0 80 4b 9d be 9d a8 29 be fe 17 c4 be ef 8b d0 be
       -0.30721664 -0.16568227 -0.38299555 -0.4073176
0001b0 4f 06 c3 3e d8 de 76 bd 4a 6f 9f be b4 1b ea 3d
       0.3809075 -0.060271114 -0.31139594 0.11431065
0001c0 26 b8 c7 bd e1 38 88 3e f8 4f 8f be 82 8c d0 3b
       -0.097519204 0.26605895 -0.279907 0.006364406
0001d0 9e 0e 94 3e 41 59 fa bd c3 54 22 bd bf 93 dd be
       0.28917402 -0.12224055 -0.039631616 -0.43276784
0001e0 c8 b5 5a be 20 f4 6d be 33 2d 29 bd 82 f2 57 3e
       -0.21358407 -0.23237658 -0.04130287 0.21088603
0001f0 72 dc 58 3e 6f 03 11 3f ae ff d2 be 05 bb 84 3e
       0.21177843 0.56645864 -0.41210693 0.25923935
000200 80 f0 de be 44 15 35 3e 71 8e 11 bd c8 ca c3 3d
       -0.43542862 0.17683893 -0.035536233 0.09560162
000210 46 cf 3e 3e 5d 32 bf 3c 3e c5 1c be 8f ea 68 be
       0.18633756 0.023339445 -0.15309617 -0.22745727
000220 3c ce ab 3e 52 d7 6b be a2 d4 b5 be 9b 2c cf 3e
       0.33555782 -0.23031357 -0.35513788 0.4046372
000230 37 e3 9c 3e 4e d7 19 bd 9c 28 83 bd 6a bd 5a 3e
       0.306421 -0.037558846 -0.0640423 0.21361318
000240 1e 63 78 3e 08 3d f5 3e db c5 71 3e 99 57 64 3e
       0.2425656 0.47898126 0.23610632 0.22299041
000250 59 86 38 bd df 1d a1 3e 64 25 25 be c7 31 66 3e
       -0.04505 0.31468102 -0.16127545 0.22479926
000260 ed 73 0e 3f 2f ba 9d be 6f 14 85 3d 6d 93 5d 3c
       0.5564564 -0.3080611 0.06498038 0.013523919
000270 1a 5a 46 3e 4a 1c 79 3e e0 77 18 bd 60 76 7e 3c
       0.19370309 0.24327198 -0.037223697 0.0155311525
000280 71 65 af be 20 06 59 be 27 83 b0 3e 22 88 80 be
       -0.3425708 -0.21193743 0.3447506 -0.2510386
000290 e5 48 80 3e 29 5b ec 3e 61 f3 b5 bd 6c 97 06 bf
       0.25055614 0.461633 -0.088843115 -0.525748
0002a0 11 6d 0c bd bd ef d6 3e 1e 60 8c 3e f0 f6 c0 be
       -0.0342837 0.4197978 0.27417082 -0.37688398
0002b0 62 cb 4a 3e 6d ea 16 bd f1 dc b2 be 6f fc c0 be
       0.19804147 -0.03684466 -0.3493419 -0.37692592
0002c0 c2 1e 3e 3e 8b 0e 39 bd 43 43 81 3e 0b 1a 41 3e
       0.1856642 -0.045179885 0.2524663 0.18857591
0002d0 08 01 19 bd 5f fc 7f be af 4f 50 3d c5 74 41 be
       -0.0373545 -0.24998616 0.050857242 -0.188922
0002e0 cb e1 d1 be 1e 32 96 be 44 aa ab be 80 ed ca bd
       -0.4099258 -0.2933511 -0.3352834 -0.09908581
0002f0 da 68 1b be c9 f1 d5 bd 81 ed 9d 3e 42 c3 00 3e
       -0.15176716 -0.104465075 0.30845264 0.12574485
000300 fe 9d 00 bf fd ff c2 3d 40 57 84 3e bc 54 be 3e
       -0.50241077 0.09521482 0.25847816 0.37174022
000310 7c ab ab 3e f6 5a b4 3e 54 b6 5a 3c 62 dd d2 3d
       0.3352927 0.35225648 0.0133491345 0.10296132
000320 44 bb a4 be d9 19 a0 3e 38 fc 12 bf ac 39 cb be
       -0.32174122 0.3126972 -0.57416105 -0.39692438
000330 41 cc a0 3e 8a 3d 8f be dd 9f ad 3e 5c 2b f9 3d
       0.31405833 -0.27976638 0.33911029 0.12166473
000340 b0 54 1f be 6c 92 bb be eb be a1 3d c8 6e 6b bd
       -0.1555965 -0.3663515 0.07897743 -0.057478696
000350 f9 39 a9 3e 2b 03 3c be 7f 24 64 3e 8c 6b ca 3e
       0.33052042 -0.18360583 0.22279547 0.39535177
000360 0f c1 c0 3e fc 2f 0b 3e cd 1f 39 3d 77 a6 b4 bd
       0.37647292 0.13592523 0.045196343 -0.08820813
000370 5c 12 9a 3d 55 6c df 3e e7 b2 93 3e aa 55 cc be
       0.07523033 0.43637338 0.2884743 -0.39909106
000380 76 dc 63 be f2 9f 16 3e 9d 96 c8 3e cf e5 b6 be
       -0.22252068 0.14709452 0.3917741 -0.35722205
000390 cc 78 36 bd 2f e3 d7 3e e9 2f b1 be a6 ed c1 bd
       -0.044548795 0.42165515 -0.34606865 -0.09469156
0003a0 85 dd d1 bd c6 d2 d3 3e ab 22 90 be 11 31 85 3d
       -0.102473296 0.41371745 -0.2815145 0.06503499
0003b0 a7 0a 80 3e 2d 7a 49 be 6e 7c 3d 3e 78 65 35 be
       0.25008127 -0.19675513 0.18504497 -0.17714489
0003c0 d5 7c 42 3e 7e 23 12 be 92 62 bb bb 9e f4 0b bc
       0.18992932 -0.14271352 -0.0057185376 -0.008542208
0003d0 c2 28 d8 bd 35 20 ea be 60 0e 24 3c c4 56 a1 be
       -0.10554649 -0.45727697 0.010013193 -0.3151151
0003e0 9b 94 d2 3e e8 c1 97 3e 8a a6 80 3e 16 45 d8 be
       0.41129002 0.29640126 0.2512706 -0.42240208
0003f0 51 79 9f be 54 c4 ab bd f1 70 aa 3e 00 be b4 3b
       -0.31147245 -0.08387056 0.33289292 0.005515814

sequential/dense_2/MatMul f4 [1, 16]
000000 c3 bf f8 3e fa 2a 86 3e fd 02 07 bf 71 06 89 be
       0.48583803 0.26204664 -0.52738935 -0.26762727
000010 1c 9c 84 3e 35 48 03 bf bb 9d d4 be f0 c9 6e bf
       0.25900352 -0.51282054 -0.4152659 -0.9327688
000020 29 a3 1c 3f 3c f7 1e 3e 4f 87 ce be 78 d0 c1 3e
       0.6118646 0.15524 -0.40337607 0.37854362
000030 32 ff b7 be 2c 3f 09 3f f6 34 89 be 6a c0 cc be
       -0.35936886 0.5361202 -0.26798218 -0.3999055
