testdata/xor_model.tflite (tflite, 3240 bytes, 5 tensors)

sequential/dense_1/BiasAdd/ReadVariableOp f4 [16]
0	0x00000000	0.0
1	0x3df22309	0.11823089
2	0x00000000	0.0
3	0x3dce76cf	0.10081255
4	0xbd74fd6b	-0.05981199
5	0x3d86fc11	0.065910466
6	0xbc53ab84	-0.0129193105
7	0xbd8a4310	-0.067510724
8	0x3db4821d	0.0881388
9	0x3dbd1e8d	0.09234343
10	0xbd990139	-0.07470936
11	0xbbdecd26	-0.006799358
12	0xbdac1299	-0.08401985
13	0xbd329799	-0.043601606
14	0xbd218f61	-0.039443377
15	0x3e718c26	0.23588619

sequential/dense/BiasAdd/ReadVariableOp f4 [16]
0	0x3c4e7be3	0.012602779
1	0x3c11bb4c	0.008894753
2	0x3e3c08dd	0.18362756
3	0x3d89045b	0.06690284
4	0x00000000	0.0
5	0xbcf56426	-0.029954981
6	0x3ca4ec25	0.020132134
7	0xbcb74078	-0.022369608
8	0xbd62eecc	-0.055403516
9	0xbcf9734f	-0.030450491
10	0xbcafa1b9	-0.02143942
11	0x3df6939f	0.12039875
12	0x3caa73a4	0.020807095
13	0x00000000	0.0
14	0x3dba1753	0.0908648
15	0xbd48e7b2	-0.049049087

sequential/dense/MatMul f4 [16, 2]
0	0xbe8ca57d	-0.27470008
1	0x3e863079	0.26208857
2	0x3ea74650	0.32670832
3	0xbeac40ce	-0.33643192
4	0xbf032826	-0.51233137
5	0x3e9cc0d2	0.3061586
6	0x3e32acec	0.17448777
7	0x3f23741a	0.6384903
8	0xbe98b05d	-0.29822055
9	0xbeec7780	-0.4618492
10	0x3c30d427	0.010792769
11	0xbcb641a4	-0.022248097
12	0x3ed7fbdd	0.42184344
13	0xbee25881	-0.44208148
14	0x3f1f6438	0.62262297
15	0xbf19ab2a	-0.600268
16	0xbeb38f05	-0.35070053
17	0x3f0060cf	0.5014772
18	0xbce31367	-0.027719213
19	0x3ec651a4	0.38734162
20	0xbf048e9a	-0.5178009
21	0x3e0269ef	0.12735723
22	0x3ea6e2f9	0.3259504
23	0xbf08689e	-0.53284633
24	0xbf123f83	-0.5712816
25	0x3f0ceabe	0.5504569
26	0xbe5e4f26	-0.2170988
27	0xbdc87ff4	-0.0979003
28	0x3e559482	0.20857432
29	0x3f1d2d24	0.61397004
30	0x3ec30472	0.3808933
31	0x3ed6573e	0.41863436

sequential/dense_1/MatMul f4 [16, 16]
0	0xbed81dfe	-0.42210382
1	0x3e15592e	0.145848
2	0x3db3e614	0.08784118
3	0xbe9e5bfa	-0.30929548
4	0xbe4c7848	-0.19967759
5	0xbe73a0d2	-0.23791817
6	0xbe9479e2	-0.2899924
7	0xbebc253c	-0.36747158
8	0xbed9b96c	-0.42524278
9	0x3d826f9c	0.06368944
10	0x3dc7c894	0.09755054
11	0x3eada315	0.33913484
12	0xbc9b32e0	-0.018945158
13	0xbe8093ec	-0.25112855
14	0xbeaa7728	-0.33294034
15	0x3da171dc	0.07883045
16	0x3dca9a24	0.09892681
17	0x3e91e6d9	0.28496435
18	0x3e88bc3f	0.2670612
19	0xbe724866	-0.2366043
20	0x3d4d7720	0.050162435
21	0x3d7ea1d2	0.062166043
22	0x3e9e0761	0.30865005
23	0xbed34a79	-0.41267756
24	0x3cdc34a0	0.026880562
25	0xbee331ca	-0.44373924
26	0xbe352fc8	-0.17694008
27	0x3e9d0d10	0.30674028
28	0x3e1901af	0.14942048
29	0x3e91c35b	0.28469357
30	0xbe60fcc0	-0.21971416
31	0xbeb3e443	-0.35135087
32	0x3eca7ed9	0.39549902
33	0xbde6feec	-0.11279091
34	0xbebfed8b	-0.37485918
35	0xbed4b1dc	-0.41541946
36	0x3ec22f3d	0.37926665
37	0xbe38dba8	-0.18052542
38	0x3dda345c	0.10654518
39	0xbd749d70	-0.059720457
40	0xbd82afa4	-0.06381157
41	0x3d4703f0	0.04858774
42	0xbd294518	-0.04132566
43	0x3d22b728	0.039725453
44	0x3e7a38b6	0.24435696
45	0xbec13e6e	-0.37742943
46	0xbebab6d3	-0.3646761
47	0x3e09d8d6	0.13461623
48	0x3f245f2f	0.6420774
49	0x3efda465	0.49539486
50	0x3e6c82c4	0.23096758
51	0xbd7905bb	-0.06079648
52	0xbe8660bc	-0.26245677
53	0x3d9fc6d9	0.07801599
54	0x3ec53252	0.38514954
55	0x3e9e3e31	0.30906823
56	0x3ea47aec	0.32125032
57	0xbc3b5a0a	-0.011435041
58	0x3f10b68b	0.5652854
59	0x3ec0e320	0.37673283
60	0x3d199384	0.037494197
61	0xbe9de0d3	-0.3083559
62	0x3e01375b	0.12618773
63	0xbd907d98	-0.07055205
64	0x3e76c4b4	0.24098474
65	0xbe873771	-0.26409486
66	0xbf1c155a	-0.6097008
67	0x3e9506e3	0.29106817
68	0x3c5ae960	0.013361305
69	0xbd8018ac	-0.06254706
70	0xbd685303	-0.05671979
71	0x3df9764c	0.121807665
72	0x3e922c08	0.28549218
73	0xbe83b6cb	-0.25725397
74	0x3ddd02e6	0.107915685
75	0xbeab161c	-0.33415306
76	0xbe188166	-0.14893112
77	0x3eb813a5	0.35952488
78	0x3e84c332	0.25930172
79	0x3d07f872	0.03319592
80	0xbec82920	-0.39093876
81	0x3e800402	0.25003058
82	0xbf139693	-0.57651633
83	0xbeb06480	-0.34451675
84	0xbe447357	-0.19184624
85	0x3c75a9c4	0.014994089
86	0xbe3461e8	-0.17615473
87	0x3f0491d3	0.5178501
88	0xbf02a05c	-0.5102594
89	0xbf02aa28	-0.5104089
90	0x3e6efa92	0.23337772
91	0x3dd39866	0.10331802
92	0x3eb884ae	0.36038727
93	0x3e543342	0.20722678
94	0x3e760200	0.240242
95	0x3e9ff150	0.31238794
96	0xbbc37d00	-0.005965829
97	0x3e9ea080	0.30981827
98	0xbeac1bbb	-0.33614907
99	0xbe2d2676	-0.16909203
100	0xbe94e6c8	-0.29082322
101	0x3e40ea82	0.18839458
102	0xbebbd001	-0.36682132
103	0xbe21d404	-0.15803534
104	0xbebda716	-0.3704154
105	0xbec8833f	-0.39162633
106	0xbe805870	-0.25067472
107	0x3ebd03b2	0.36916882
108	0xbe831a19	-0.25605848
109	0x3e7f7ce2	0.24949983
110	0xbe8c17a5	-0.2736179
111	0x3eb64188	0.3559687
112	0x3e93eea5	0.2889301
113	0xbe967542	-0.29386336
114	0x3d898ac8	0.067159235
115	0xbe830c71	-0.2559543
116	0xbebf574e	-0.37371296
117	0x3d131921	0.035912637
118	0x3d943132	0.07235946
119	0xbe05ac21	-0.13053943
120	0x3d0b0c38	0.0339472
121	0x3eaaac6d	0.33334675
122	0x3e87517f	0.26429364
123	0x3eae837b	0.34084687
124	0x3e153c4a	0.1457378
125	0xbe9c79d0	-0.30561686
126	0x3e5812a5	0.21100862
127	0x3e275712	0.16341808
128	0x3d591d6e	0.053006582
129	0xbc9e5f07	-0.019332422
130	0x3ed66ff9	0.41882303
131	0x3ea3a31c	0.3196038
132	0x3e55e602	0.20888522
133	0x3e5b9f00	0.21447372
134	0x3e85544f	0.26040885
135	0x3e9cf39e	0.30654615
136	0x3e862381	0.26198962
137	0x3e33ac24	0.17546135
138	0xbe26c77a	-0.16287032
139	0x3ee361b1	0.4441047
140	0xbd7decc2	-0.061993368
141	0x3ec8f6c5	0.3925077
142	0x3ec75bf3	0.3893734
143	0x3cd8d809	0.026470201
144	0x3e3d1b19	0.18467368
145	0xbdcc09b2	-0.09962787
146	0xbde4ba67	-0.11168366
147	0x3ed94857	0.42438003
148	0xbe8c6ead	-0.2742819
149	0xbe2d9103	-0.16949849
150	0x3d170d2a	0.03687779
151	0x3c8815a9	0.01661189
152	0xbcb24853	-0.021763002
153	0x3e90649e	0.28201765
154	0x3ecd50ef	0.4010081
155	0x3ebb16f0	0.36540937
156	0x3e7104a9	0.23536934
157	0xbe3203c6	-0.17384252
158	0x3e87f8ba	0.2655695
159	0x3dc86613	0.09785094
160	0xbecf3cb0	-0.40475988
161	0xbe2f146e	-0.17097637
162	0xbddc2e68	-0.10751039
163	0xbd0612e5	-0.032732863
164	0xbe7a9c76	-0.24473748
165	0x3e25b6a1	0.16182949
166	0x3e779179	0.24176587
167	0x3e0215aa	0.12703577
168	0xbea22ecd	-0.3167633
169	0xbed55cfa	-0.41672498
170	0x3eb3ca77	0.35115406
171	0xbe5a2880	-0.21304512
172	0xbe778eed	-0.24175616
173	0xbe2fef54	-0.1718114
174	0x3e146f5a	0.14495602
175	0xbe6bd2fb	-0.23029701
176	0x3f0b9eea	0.5453936
177	0xbe880047	-0.26562712
178	0x3f00b977	0.50282997
179	0xbdef0ea2	-0.11672713
180	0x3e37643e	0.17909333
181	0xbdc25a91	-0.094899304
182	0xbec72097	-0.38892052
183	0xbef7178b	-0.4826015
184	0xbdb04e13	-0.086086415
185	0x3e5dc00e	0.21655294
186	0x3eb6a140	0.356699
187	0xbefbd7cf	-0.49188086
188	0x3f27993d	0.654682
189	0xbdc7c26c	-0.0975388
190	0x3e36a32b	0.17835681
191	0xbe1f001f	-0.1552739
192	0xbe75f5cf	-0.2401955
193	0x3dfb6674	0.12275401
194	0xbdc2f4a7	-0.0951932
195	0x3e88ffc3	0.2675763
196	0xbd768020	-0.060180783
197	0x3e80ae5b	0.25133023
198	0xbeecb035	-0.46228185
199	0x3ce202fa	0.02758931
200	0x3e95ed35	0.29282537
201	0x3e7e4855	0.2483228
202	0x3e8a6b53	0.27035007
203	0x3e3d1419	0.18464698
204	0xbe841bd8	-0.25802493
205	0xbdfbe7f0	-0.12300098
206	0xbe0e2ffc	-0.13885492
207	0x3ec4b3b8	0.38418365
208	0xbc6626b7	-0.014047316
209	0x3ac46300	0.0014983118
210	0xbeba5499	-0.36392668
211	0xbe2e874c	-0.17043799
212	0x3e5e54ba	0.21712008
213	0x3ecf46e9	0.40483788
214	0xbea5bbed	-0.32369938
215	0xbb8ff3e6	-0.0043930886
216	0x3ea078f4	0.3134228
217	0x3eada0d3	0.33911762
218	0x3e612bb5	0.21989329
219	0xbead2f8c	-0.33825338
220	0x3dc4f0e4	0.09616259
221	0x3ec126d7	0.37724945
222	0xbe9e307e	-0.30896372
223	0x3dc8a923	0.09797885
224	0x3ea3e23a	0.32008535
225	0xbad6de00	-0.0016393065
226	0xbe7ba7c4	-0.24575716
227	0xbee7e8e8	-0.4529488
228	0x3ecd8813	0.4014288
229	0x3e346b92	0.1761916
230	0xbeaad4fc	-0.3336562
231	0xbe1e47ec	-0.15457124
232	0x3e083bb4	0.13304025
233	0x3e78ef6e	0.24310085
234	0xbe6a3e3d	-0.22875305
235	0x3e5ebb1e	0.21751067
236	0x3ec1bdcc	0.37840116
237	0xbe439039	-0.19097985
238	0xbe014ab0	-0.12626147
239	0x3d4cf55f	0.05003869
240	0xbe495f4f	-0.19665264
241	0xbefd864a	-0.49516517
242	0xbe4c18a8	-0.1993128
243	0x3ece0e61	0.40245345
244	0xbcb8c2a0	-0.022553742
245	0x3e4d48ce	0.20047304
246	0xbe93eff3	-0.28894004
247	0xbe7da3e0	-0.24769545
248	0xbec83861	-0.39105514
249	0xbd3826ac	-0.044958755
250	0xbe0479cf	-0.12937091
251	0x3e7e03ce	0.24806139
252	0xbed21973	-0.4103504
253	0x3e0b31de	0.13593242
254	0x3e17f768	0.14840472
255	0xbdbcfd9b	-0.09228059

sequential/dense_2/MatMul f4 [1, 16]
0	0x3e7ed314	0.24885207
1	0xbf37d3cc	-0.7180755
2	0x3e944a3e	0.28962892
3	0x3e97f408	0.2967837
4	0xbe607952	-0.2192128
5	0x3efa8fb5	0.48937765
6	0xbdbe9cba	-0.09307237
7	0xbdb3f8d2	-0.08787693
8	0x3e91e195	0.28492418
9	0x3ef50f1b	0.47863087
10	0xbe9472a9	-0.2899373
11	0x3e465ba1	0.19370891
12	0xbf06ed93	-0.5270626
13	0xbec3c8c8	-0.3823912
14	0xbeee8f55	-0.4659373
15	0xbf3ea44d	-0.74469453
